…
yers.Dense(64),\n        layers.Activation('relu'),\n        layers.Dense(32),\n        layers.Activation('relu'),\n        layers.Dense(num_classes)\n    ])\n\n\nmodel.compile(optimizer='adam',\n          loss=keras.losses.CategoricalCrossentropy(from_logits=True),\n          metrics=['accuracy'])\n\nmodel.summary()\n</code></pre> <pre>\n<code>Model: \"sequential\"\n_________________________________________________________________\n Layer (type)                Output Shape              Param #   \n=================================================================\n flatten (Flatten)           (None, 784)               0         \n\n dense (Dense)               (None, 64)                50240     \n\n activation (Activation)     (None, 64)                0         \n\n dense_1 (Dense)             (None, 32)                2080      \n\n activation_1 (Activation)   (None, 32)                0         \n\n dense_2 (Dense)             (None, 10)                330       \n\n=================================================================\nTotal params: 52650 (205.66 KB)\nTrainable params: 52650 (205.66 KB)\nNon-trainable params: 0 (0.00 Byte)\n_________________________________________________________________\n</code>\n</pre> <p>Alternatively, it is equivalent to write:</p> <pre><code>inputs = keras.layers.Input(input_shape)\nx = keras.layers.Flatten()(inp
…
rs.GroupSort2(),\n        lip.layers.SpectralDense(32),\n        lip.layers.GroupSort2(),\n        lip.layers.SpectralDense(num_classes)\n    ],\n\n)\n\nLip_model.compile(optimizer='adam',\n          loss=keras.losses.CategoricalCrossentropy(from_logits=True),\n          metrics=['accuracy'])\n\nLip_model.summary()\n</code></pre> <pre>\n<code>Model: \"sequential_1\"\n_________________________________________________________________\n Layer (type)                Output Shape              Param #   \n=================================================================\n flatten_2 (Flatten)         (None, 784)               0         \n\n spectral_dense (SpectralDe  (None, 64)                100481    \n nse)                                                            \n\n group_sort2 (GroupSort2)    (None, 64)                0         \n\n spectral_dense_1 (Spectral  (None, 32)                4161      \n Dense)                                                          \n\n group_sort2_1 (GroupSort2)  (None, 32)                0         \n\n spectral_dense_2 (Spectral  (None, 10)                661       \n Dense)                                                          \n\n=================================================================\nTotal params: 105303 (411.34 KB)\nTrainable params: 52650 (205.66 KB)\nNon-trainable params: 52653 (205.68 KB)\n_________________________________________________________________\n</code>\n</pre> <pre>\n<code>C:\\Users\\kierszbaums\\anaconda.related\\envs\
…
nse layers and SpectralConv2D into Conv2D\n# which optimize performance for inference\nvanilla_model = model.vanilla_export()\n</code></pre> <pre>\n<code>/home/thibaut.boissin/projects/deel-lip/deel/lip/model.py:56: UserWarning: Sequential model contains a layer wich is not a Lipschitz layer: flatten_2\n  layer.name\n</code>\n</pre> <pre>\n<code>Model: \"hkr_model\"\n_________________________________________________________________\nLayer (type)                 Output Shape              Param #   \n=================================================================\nspectral_conv2d_4 (SpectralC (None, 28, 28, 16)        321       \n_________________________________________________________________\nscaled_l2norm_pooling2d_4 (S (None, 14, 14, 16)        0         \n_________________________________________________________________\nspectral_conv2d_5 (SpectralC (None, 14, 14, 16)        4641      \n_________________________________________________________________\nscaled_l2norm_pooling2d_5 (S (None, 7, 7, 16)          0         \n_________________________________________________________________\nflatten_2 (Flatten)          (None, 784)               0         \n_________________________________________________________________\nspectral_dense_2 (SpectralDe (None, 32)                50241     \n_________________________________________________________________\nfrobenius_dense_2 (Frobenius (None, 10)                640       \n=================================================================\nTotal params: 55,843\nTrainable params: 27,920\nNon-trainable params: 27,923\n_________________________________________________________________\nEpoch 1/30\n30/30 [==============================] - 3s 43ms/step - loss: 6.5323 - accuracy: 0.1522 - MulticlassKR: 0.0183 - val_loss: 2.3933 - val_accuracy: 0.4873 - val_Multicla
…
bcublasLt.so.11\n2021-09-08 18:20:38.861380: I tensorflow/stream_executor/cuda/cuda_blas.cc:1838] TensorFloat-32 will be used for the matrix multiplication. This will only be logged once.\n</code>\n</pre> <pre>\n<code>Model: \"model\"\n_________________________________________________________________\nLayer (type)                 Output Shape              Param #   \n=================================================================\ninput_1 (InputLayer)         [(None, 64, 64, 1)]       0         \n_________________________________________________________________\nflatten (Flatten)            (None, 4096)              0         \n_________________________________________________________________\nspectral_dense (SpectralDens (None, 128)               1048833   \n_________________________________________________________________\nspectral_dense_1 (SpectralDe (None, 64)                16513     \n_________________________________________________________________\nspectral_dense_2 (SpectralDe (None, 32)                4161      \n_________________________________________________________________\nfrobenius_dense (FrobeniusDe (None, 1)                 65        \n=================================================================\nTotal params: 1,069,572\nTrainable params: 534,785\nNon-trainable params: 534,787\n_________________________________________________________________\n</code>\n</pre> <pre><code>optimizer = Adam(lr=0.01)\n</code></pre> <pre><code>wass.compile(loss=HKR(alpha=0), optimizer=optimizer, metrics=[KR])\n</code></pre> <pre><code>w
…
o returning NUMA node zero\n2021-09-09 14:03:39.211849: I tensorflow/core/common_runtime/gpu/gpu_device.cc:1406] Created TensorFlow device (/job:localhost/replica:0/task:0/device:GPU:0 with 7250 MB memory) -&gt; physical GPU (device: 0, name: GeForce RTX 2070 SUPER, pci bus id: 0000:01:00.0, compute capability: 7.5)\n</code>\n</pre> <pre>\n<code>Model: \"hkr_model\"\n_________________________________________________________________\nLayer (type)                 Output Shape              Param #   \n=================================================================\nspectral_conv2d (SpectralCon (None, 28, 28, 16)        321       \n_________________________________________________________________\nscaled_l2norm_pooling2d (Sca (None, 14, 14, 16)        0         \n_________________________________________________________________\nspectral_conv2d_1 (SpectralC (None, 14, 14, 32)        9281      \n_________________________________________________________________\nscaled_l2norm_pooling2d_1 (S (None, 7, 7, 32)          0         \n_________________________________________________________________\nflatten (Flatten)            (None, 1568)              0         \n_________________________________________________________________\nspectral_dense (SpectralDens (None, 64)                200833    \n_________________________________________________________________\nfrobenius_dense (FrobeniusDe (None, 10)                1280      \n=================================================================\nTotal params: 211,715\nTrainable params: 105,856\nNon-trainable params: 105,859\n_________________________________________________________________\n</code>\n</pre> <pre>\n<code>/home/thibaut.boissin/projects/repo_github/deel-lip/deel/lip/model.py:56: UserWarning: Sequential model contains a layer wich is not a Lipschitz lay
…
